data.pth (torch, 29802 bytes, 6 tensors)

l1.weight f4 [32, 141]
00000000: 780e 28be fdad e43c bf84 273e 90c1 0f3e
00000010: 1006 11be b3f2 96bd 7c7f ba3d c925 903e
00000020: f804 6d3d 7166 ddbd 4b33 193d b49e 2fbd
00000030: 37d5 193e 5961 783d 1db4 463e 8048 ce3d
00000040: a6cb b1bc ef96 8e3e e25b 8cbd 6f25 1b3d
00000050: 4b4f f9bd bbeb 9fbd b353 3ebd a0f3 4cbe
00000060: d180 a23d 0846 55bd 92b7 263e 362f 42bc
00000070: 8f6f 6fbe de6e a83c 6170 11be b299 bd3d
00000080: 6627 17bd dd0d 3d3e d1b3 6a3e c0d0 3dbd
00000090: fb54 273e 2195 863e 9729 283e e871 973e
000000a0: bb64 aabd 2de6 6bbe 7625 b1bd ab55 493e
000000b0: 09f1 3ebd 7c54 953e ab0c 783e 0e30 863d
000000c0: bc2e 1dbe 2320 2a3e fb85 9e3e ea90 653d
000000d0: 0162 8ebc a540 233e acb6 44bd 44e0 903e
000000e0: 8ea4 6cbe e567 633e 369f 143e 9ed2 0ebd
000000f0: 847d a33c b221 963e 69ba 773e 9e4a c13d
00000100: 45a3 ee3d 3102 ad3d 5e70 683e db1c 183e
00000110: b6a8 c4bd 6f36 41be aa69 f43d 79ca 0b3e
00000120: 6540 9cbc 1c2b 863d 7f6d 313e 4c43 0fbe
00000130: 8212 ab3c fb04 293d 7a65 8c3d bd36 0dbe
00000140: 2d70 223d f702 7c3e 7c92 f93d 2d21 cf3d
00000150: 8d46 123e 5611 03be cd14 08be a2c3 a4bd
00000160: 13b7 bb3e 52fd ce3d 9869 503c b0a2 56bb
00000170: d314 613d 1beb a63d bfba 26be 0732 0a3d
00000180: 8e1a 8f3c 8a28 f43d 71e3 09be a40b 6bbe
00000190: ba8f a13d a042 3fbd 18b3 653e b2a4 113e
000001a0: 27cf 9cbe 5554 37be afc0 453e ac34 923e
000001b0: 1cd9 35be 3a0e d53d 469e b13d 1c62 89bc
000001c0: 93f2 113e a460 9e3e 2e3d b1bc 34c5 363e
000001d0: 0f54 dfbc 45c8 38be ee77 52be cacf 743e
000001e0: 3ec3 c33e 56bc 18be c985 993e cf11 9cbe
000001f0: d710 eebd 1383 4e3d fe8e 163e f28a b7bd
00000200: 5861 1b3e 8175 083d fff9 133d 9843 02bd
00000210: 2f6f 453e 310e d0bc d5a0 3d3e 49a5 0dbe
00000220: 3894 d9bc 9e3d 06be 2b95 f3bd 4803 4dbd
00000230: a561 8a3e 746e ab3e b9a1 8a3e 5a27 d83d
00000240: 37c6 4d3d b57e 73bd eb2c 423c bc28 073e
00000250: 8c51 1fbe f900 b63e 0de6 8dbd 2afa e6bd
00000260: 8dcc 30be c834 fcbd 39c8 253e 5f6d 3cbd
00000270: ea09 50bd 4251 dbbd 518c 99bc bbef ce3c
00000280: cd27 02be 8e3d 4c3e 5b7e 9cbc cc1c 0ebe
00000290: 2d1f a93d e19e be3d ad8a 28be cf7e 223e
000002a0: 470a b23d f6ac 08be dd77 aabd 99a8 d43d
000002b0: 14a3 293e b7c8 97bd 8361 05be 9612 053e
000002c0: 7950 73be 19d6 833e b86f 69bd d714 b93d
000002d0: 7cf2 06be 783d d4be f1fe b73e 6c5c c4be
000002e0: ff00 d93b a706 87bd 2a49 1a3e b419 6f3e
000002f0: 1c4e 3cbe 8cab ce3d b8bd df3d 57a4 553e
00000300: a5ff 8d3e 8ac5 173d 311c e4bd f75f f13d
00000310: f4fa ddbd 3b61 5abe 0256 8cbe 0cb9 8a3e
00000320: fad9 0dbe 8018 743a 0a99 98be 5906 c7bd
00000330: b48d 01be d24b 1fbe 7ffc fa3d 5163 243d
00000340: 5327 863d 3ad3 043e f496 a23e ea2e 043e
00000350: 8bd3 29bd a1bf 4f3d 7255 353e 9a8b 4e3d
00000360: 4482 c0bd 5d66 74bd 4e61 063e db7f a73d
00000370: f1f0 683d 31c3 5cbe 6493 833e 97bc 893d
00000380: d36d 633e bf82 03be 11e2 7ebc c6fe b93d
00000390: 0b31 a83e 1829 ffbd b65b 99bd b7a1 80be
000003a0: 3aa0 66bd 4099 05be 8be3 d1bd 82d2 013d
000003b0: 1fe9 93be f67a 113e a59d 673e af22 adbd
000003c0: 1e83 8fbe a709 0b3c 6650 12be a094 483e
000003d0: d385 c23c 1f0e be3e 96e3 423d b48e c4bd
000003e0: 2062 4ebd a935 1fbe 0dbc 7c3d ece6 cd3b
000003f0: 375d f23d 4e2e 983e cead 0fbd 853d 88bd
-0.1641177 0.027914995 0.16359232 0.14038682 -0.14162469 -0.0737051 0.09106347 0.28153828
0.057866067 -0.10810555 0.037402432 -0.04287596 0.15022741 0.060639713 0.19404645 0.10072422
-0.021703552 0.27849528 -0.06853463 0.037877496 -0.12173327 -0.07808634 -0.04646654 -0.2001481
0.07934726 -0.05206874 0.16280964 -0.011852076 -0.233824 0.020560678 -0.14203025 0.09257831
-0.036902808 0.1846232 0.22920157 -0.046341658 0.16341011 0.2628565 0.16422115 0.2957909
-0.08319994 -0.23037024 -0.08649723 0.19661586 -0.046616588 0.2916602 0.24223582 0.065521345
-0.15349859 0.16613822 0.30961594 0.056046404 -0.017380716 0.15942629 -0.048025772 0.282961
-0.23109648 0.22207601 0.14513859 -0.03486883 0.019957311 0.29322582 0.24192204 0.0943806
0.11652235 0.084476836 0.22699115 0.14854757 -0.096024916 -0.18868421 0.11934216 0.13651456
-0.019073674 0.06551191 0.17326926 -0.13990515 0.020882849 0.041264515 0.068552926 -0.13790412
0.03965776 0.24610506 0.12186143 0.1011375 0.14284725 -0.12799582 -0.13289185 -0.080451265
0.36663112 0.10106911 0.012720488 -0.0032750778 0.0549515 0.081503116 -0.16282175 0.033739116
0.017468717 0.11921795 -0.13465668 -0.2295366 0.07888742 -0.046694398 0.224316 0.14222983
-0.30626795 -0.17903264 0.19311784 0.2855581 -0.17758602 0.10403104 0.086727664 -0.016770415
0.14252691 0.30933106 -0.021635618 0.17848665 -0.027261762 -0.18045147 -0.20553562 0.2390739
0.38234895 -0.14915594 0.29984882 -0.30482337 -0.11624306 0.05041797 0.14702985 -0.089620486
0.15173852 0.033315185 0.036127087 -0.031802744 0.19280694 -0.025397392 0.18518384 -0.13832583
-0.026559934 -0.13109443 -0.11893686 -0.050051957 0.27027622 0.33482707 0.2707651 0.10554381
0.05023786 -0.05944701 0.01185153 0.13199133 -0.15558451 0.35547617 -0.06928644 -0.11278184
-0.1726553 -0.12314755 0.1618966 -0.046002742 -0.050790705 -0.10708858 -0.018743666 0.025260797
-0.12710495 0.19945356 -0.01910322 -0.13878173 0.082578994 0.093076475 -0.1645915 0.15868686
0.086933665 -0.1334723 -0.08323643 0.1038372 0.16566116 -0.0741133 -0.13025479 0.12995371
-0.23761167 0.2574928 -0.05699131 0.09037178 -0.13178438 -0.41453147 0.35936692 -0.38351762
0.006622433 -0.06593066 0.15066972 0.23349649 -0.18389171 0.10091314 0.10924858 0.20863472
0.27734104 0.037053622 -0.111381896 0.11785882 -0.10838881 -0.21326153 -0.2740937 0.27094305
-0.13852683 0.0009311512 -0.2980426 -0.097180076 -0.12651712 -0.15556267 0.12255191 0.040133778
0.06550469 0.12971202 0.31755793 0.12908521 -0.04146151 0.05071986 0.17708376 0.050426103
-0.09399846 -0.059667934 0.13123056 0.08178683 0.056870405 -0.21558835 0.25698388 0.06725424
0.22209863 -0.12842844 -0.015556828 0.09081797 0.32849917 -0.1245901 -0.074881956 -0.2512338
-0.056305148 -0.13046741 -0.102484785 0.031694897 -0.28888795 0.14207062 0.2261873 -0.08453881
-0.28029722 0.008486188 -0.14288482 0.19587946 0.023745453 0.3712015 0.047580324 -0.09597531
-0.050386548 -0.15547813 0.061702777 0.0062836315 0.118341856 0.29722828 -0.035077862 -0.06652359

l1.bias f4 [32]
00000000: e548 673e 4324 a93e 3aa7 663e ef39 063f
00000010: 99de cf3e 4d49 d43e afbc f23d 6492 003f
00000020: 3052 333e 429b a83e a97a 9a3e 466b 573e
00000030: 2047 cd3e 3e35 063e af7e 343e edb8 db3e
00000040: 2583 7d3e ea8f c93e c85e d53e ad91 523e
00000050: 2061 0c3f 22ed 723e 372e 473e 7222 1d3e
00000060: bc02 513e 1dc6 dd3e 5890 9d3e 4fe5 343e
00000070: 6926 a93e 4e3e 893e 93db 8e3e 92d6 de3e
0.22586401 0.33035478 0.2252473 0.5243215 0.40599516 0.41462174 0.11852395 0.50223374
0.17511821 0.32930952 0.30171707 0.21037015 0.40093327 0.13106248 0.17626451 0.42914525
0.24757059 0.3936761 0.41673875 0.20563383 0.548357 0.23723271 0.19451223 0.15345171
0.204112 0.4331521 0.30774188 0.176656 0.33037117 0.26805347 0.27901897 0.4352308

l2.weight f4 [32, 32]
00000000: 10f3 03bf a0e2 113f c7ad 883e 843f db3e
00000010: 16bc 583e 3466 ce3e c6d8 79bc 8184 cf3e
00000020: 622e da3b d99b 5cbe cda3 19be 2dfe fb3d
00000030: 47ba 0f3f e68d a13e 075f 4fbe 8679 2bbc
00000040: 4c18 fb3e 3747 993d 0ba7 9c3e 09ec cfbb
00000050: 7950 b73e 6e02 cbbe d209 e93e 65da b63e
00000060: 20ac d33e a3f3 53be 3cd3 ccbe 6f83 bbbe
00000070: 9533 1cbe 1c75 7bbe b224 8e3d 38e9 86be
00000080: 741e efbd 0870 18be 8c41 01be d60e c53d
00000090: f854 8abc 8013 27bd a1e5 e8bd b48e 1ebe
000000a0: f06a ddbd 2602 d83d 8e9a 9abd e539 2f3e
000000b0: e050 adbc 3c73 3d3d 2054 133d 9ec8 8d3d
000000c0: 77e8 30be 3736 2d3e 36b7 c43d 5d12 ddbd
000000d0: 67a9 15be 1a62 12be cc9a 5e3d 4afc d23d
000000e0: e168 bebd 5176 02be bc12 2bbe bb7d 96bd
000000f0: 80cb b7ba 8036 49bd ce30 03be ec05 3c3d
00000100: d193 ad3d 77c6 2dbf 4125 29bd 9899 923e
00000110: 6fc7 80bd 20f3 943e 54fb cebc c637 8f3e
00000120: 6596 853e e0b0 c83e 73b7 663e a4ba 2a3f
00000130: cc9e 75bd 94e3 f2be f71a 26bd 43c6 e43e
00000140: 2185 d43b 0777 1c3e 2ec9 073e 9a91 a43e
00000150: a5b0 07be 380b c93e fcdb 3b3c f957 a43e
00000160: bd00 53be fea7 93bd 62f6 963e 685d 553e
00000170: f6aa ea3e 0959 3b3e 0f9a 0ebf 9b6a 853e
00000180: 177c 683e dc64 0c3f ce68 e33e a9c0 4c3e
00000190: 7870 19bc 31d0 553e eb0b 94be f2db 9fbe
000001a0: 7158 cc3e ad67 fe3c e825 9abe 522b 4d3e
000001b0: 1dc6 eb3e a3db bd3e 6f1b 033f 0d57 81be
000001c0: eef4 03be 1031 92bd 424a 533e cdf6 48be
000001d0: 59ee ba3e 832c 983e 24ca 5abc 833d 783e
000001e0: 98d9 e23e 1236 fb3d 32c6 113f 316e a83e
000001f0: 3216 c83e dd0a de3d 8909 143e 4699 91be
00000200: b188 033c 959b 143e 3808 a73d 4c6b a73e
00000210: 2de0 bfbe 7eb0 ce3e b7f7 9bbe 13f4 c3bd
00000220: 4930 1f3f dfc9 b53e f3bd a03e 575c 48bc
00000230: 7728 523f 0913 703e 8cc6 87be b264 8abd
00000240: 8e57 6a3e 9e57 ed3e ed89 b33e f48e 72bd
00000250: 9e7b 233f 6389 d9bd 1d2b 55be f424 64be
00000260: 0bd4 443f 81d7 153f 9cae 203e d0f3 30be
00000270: 815c 953e ba5e cdbe f4ff c33e 6e0d 95be
00000280: 8308 7fbe 2e20 823e 66a6 b13e 418b 8abe
00000290: 2572 cd3e 8667 983e fca9 fc3e ac45 163d
000002a0: 754a f0bd 5033 f8be f1f5 5c3e d435 2cbf
000002b0: d0a7 9e3e 901a 903e 83e2 213e 4c3d ae3e
000002c0: 036e 913e ce4e 20be 01f6 873e 9877 17be
000002d0: 40b5 f2bd eb95 10be aa1d bd3e 9484 9c3e
000002e0: 42da 163f f0d7 803e 71e3 babe a34e 81be
000002f0: bf78 63be 2b03 413b 163d 1d3f 7a22 6d3e
00000300: 2cf4 45be b24c 7fbe 6564 2c3d cb96 ab3e
00000310: d164 293d 130b b13c ee11 8c3e b287 fe3e
00000320: 036a 893d 09c2 e43b cd0f 9b3d a1a4 213f
00000330: 8693 0d3f 7909 4f3e c089 4a3d ebe7 f43e
00000340: b658 eb3e bca1 c2bd 4977 2b3f 7830 84be
00000350: d9bf 05bd ad70 683d 64ad d7be a2ef 9b3e
00000360: 33fc dd3c 64c1 a6be d2a0 3d3e 0d31 61be
00000370: 8694 c6bc 87d0 943e a08b 2abd a267 ddbe
00000380: 0b5f ef3e 56f1 133f 324f 003f 36e2 20be
00000390: b490 e53e 0119 d7bc 4e29 8f3e 6594 523d
000003a0: 98b6 9ebe a73c 243d 9b25 373e 0fb2 0ebf
000003b0: d452 b2ba c83a 063f dab0 d73d dc6d 39be
000003c0: 8832 1f3e 4ada 45bd 5e6a ddbd f67b e93d
000003d0: ab56 1cbe 84cc 8cbc c985 923e d84b aa3e
000003e0: fefa b1bd f898 76be 0bb1 28be 0d2c a83e
000003f0: 97b0 05be 6631 03be 5949 57be 0737 143f
-0.5154276 0.5698643 0.26695082 0.42821896 0.21165499 0.4031235 -0.015249437 0.4053078
0.0066583613 -0.21543826 -0.15003891 0.123043396 0.5614361 0.31553572 -0.20251094 -0.010465985
0.49041975 0.07484286 0.30596194 -0.0063452763 0.35803583 -0.3965029 0.45515305 0.35713497
0.41342258 -0.20698409 -0.4000491 -0.36623713 -0.15254052 -0.24556392 0.06940593 -0.26349807
-0.1167573 -0.14886487 -0.1262266 0.0962197 -0.01688622 -0.04079008 -0.11371923 -0.15484124
-0.10811412 0.10547285 -0.0754901 0.17111929 -0.021156728 0.046252474 0.0359689 0.0692303
-0.17276178 0.16915213 0.09605257 -0.10794518 -0.14615403 -0.14295235 0.054346845 0.103020266
-0.09297348 -0.12740447 -0.16706365 -0.073482 -0.001402244 -0.04912424 -0.12811586 0.045904085
0.08475459 -0.6788096 -0.041295294 0.28632808 -0.06288039 0.2909174 -0.025266327 0.2797224
0.26091304 0.39197445 0.22530918 0.6669104 -0.059965894 -0.47439253 -0.04055306 0.44682512
0.0064855968 0.1527978 0.13260338 0.32142335 -0.13250978 0.39266372 0.011466023 0.32098368
-0.2060575 -0.07209776 0.2948485 0.20836413 0.45833558 0.18295683 -0.55703825 0.26057896
0.22703587 0.548414 0.44415897 0.19995369 -0.009365194 0.208802 -0.28915343 -0.31222492
0.39911225 0.031055296 -0.30107045 0.20036057 0.46049586 0.37081632 0.51213735 -0.25261727
-0.12886402 -0.07138264 0.20633796 -0.19625397 0.3650997 0.2972146 -0.013353858 0.24242215
0.44306636 0.122661725 0.5694305 0.3289657 0.39079434 0.10841916 0.14456762 -0.2843725
0.008028195 0.14512475 0.081558645 0.3269905 -0.3747572 0.40369028 -0.3046243 -0.09568038
0.6218305 0.35505578 0.3139492 -0.012229047 0.82092994 0.23444761 -0.26518667 -0.06757487
0.22884962 0.4635591 0.35066167 -0.059218362 0.638605 -0.106219076 -0.20817228 -0.22279721
0.7688605 0.5853196 0.15691608 -0.17280507 0.29172137 -0.40111333 0.38281214 -0.2911181
-0.2490559 0.25415176 0.34697264 -0.27059367 0.40126148 0.29766482 0.49348438 0.036687538
-0.117329516 -0.48476648 0.21578194 -0.67269635 0.30987406 0.28145266 0.15809064 0.3403114
0.28404245 -0.15655062 0.26554874 -0.14791715 -0.11850977 -0.14119689 0.36936694 0.305699
0.58926785 0.25164747 -0.3650165 -0.25255308 -0.2221403 0.002945135 0.61421335 0.23157683
-0.19331425 -0.249316 0.04208793 0.33513483 0.04135591 0.021611726 0.2735743 0.49712902
0.06709673 0.0069811386 0.07571373 0.6314183 0.5530323 0.20218457 0.049447775 0.4783319
0.4596612 -0.09503505 0.6697889 -0.2581823 -0.032653663 0.05674808 -0.42124474 0.30456263
0.027097797 -0.3256942 0.1851838 -0.21991368 -0.024240743 0.29065344 -0.041637063 -0.43243128
0.467522 0.57790124 0.5012084 -0.15711293 0.44836962 -0.02625704 0.279612 0.05141105
-0.30998683 0.040096905 0.17885439 -0.55740446 -0.0013605007 0.52433443 0.10531779 -0.18108314
0.1554662 -0.04830388 -0.108113036 0.11400597 -0.15267436 -0.017187364 0.28617695 0.3326099
-0.08690451 -0.2408179 -0.16473787 0.32846108 -0.13055645 -0.12811813 -0.21024074 0.57896465

l2.bias f4 [32]
00000000: af13 083e 9ef0 6fbd 1e8c f9bc 0439 173e
00000010: 0d9c 543e 66ed 4d3d edc9 9f3d 7264 073e
00000020: e1a4 02be 6070 733e bf0e 853e 75c8 813e
00000030: cd59 03be a9f6 9fbd 0a82 af3e 36c5 0f3e
00000040: 64c4 babc f0e5 453e c9ec 1e3e 1430 11be
00000050: 429a b13d 0cda d93e d383 df3d 81c3 4abe
00000060: bb7e 88bd b99f 21be 2702 013e c439 2d3e
00000070: 9b9e 5f3e b93b 9c3e 27c6 9fbd 28d8 933e
0.13288759 -0.05857908 -0.03046232 0.14767843 0.20762654 0.05027523 0.07802186 0.1322191
-0.12758209 0.23773336 0.25987813 0.2534825 -0.12827225 -0.078107186 0.342789 0.14040074
-0.022798724 0.19325995 0.15520014 -0.14178497 0.086720005 0.4254917 0.10913815 -0.19801141
-0.06664797 -0.15783586 0.12598477 0.16916567 0.21837847 0.30514315 -0.078014664 0.28875852

l3.weight f4 [24, 32]
00000000: a035 b2bd 9c26 133d 51fa abbd 99d6 91be
00000010: 9166 fabd ed19 d63d f420 2abe 4ea2 4dbd
00000020: 1e34 81be 5534 f03d a586 4a3e b857 513e
00000030: 2036 e5be 6d95 8ebf d987 913e 6df2 07bd
00000040: f26d 71be 7eec 4bbd ebaa b0bd e842 c93d
00000050: 2073 75bf 383a 83be e200 87be a33c c83d
00000060: 376b 4ebf 58db aebe d517 4f3e 698f da3d
00000070: 9d2c 473d 14c0 c13e 012e 8ebd e6a0 ae3e
00000080: 3bab aa3d 60bf a7bc 639f 9f3e 3711 05be
00000090: e12f 313e 7a8f d2be 9231 c23e e421 2dbf
000000a0: ccdd 74bf f382 4b39 9686 503c 864b 4f3d
000000b0: d494 b1be c97b c2be 8690 df3d 8ea9 563e
000000c0: a24b 573e fdc6 123e 23f3 5b3e 540d 4cbd
000000d0: 0720 643e 8d46 463e aeae 82bf cdcd b23d
000000e0: 2bc0 f33b 6eea e5be 5102 13bf 6715 e1be
000000f0: 13bd 5b3e 3060 b1be e055 7abe 8251 3abe
00000100: 08ba 04bd a390 2abe 935e 3cbe 7cde 433e
00000110: e00e b93d 2669 7a3e 5ef8 7f3e 0b65 f2be
00000120: cb7f 45be d4c6 5ebf 5280 603d 4d70 233e
00000130: 53f7 b5be f0cb 8b3e c4a7 073e c20e 84be
00000140: 867b 05be 1934 8b3e 8d98 1cbf 2891 da3c
00000150: cc1a fcbd b6c4 2dbe 1add 32bf c9a4 173e
00000160: e722 33bd 3ac8 4e3d d162 bdbe 89b0 5c3e
00000170: a98f 8ebe 9b0c e8be d6d0 963d 65bd a8bd
00000180: 3f60 a2be 803d fdba 94a2 0cbd 1085 06bf
00000190: 702a 4abf 3312 7f3e e1a2 7b3e 9953 7ebe
000001a0: 2aba a33d d1a0 d93b c1dc 293e 2d69 4fbe
000001b0: 71e0 183d 56fb e2be 40c2 683e aed2 223e
000001c0: 8816 d6be 7bea 233e 00ac d5be 825c 513c
000001d0: fa46 3ebf 19d8 13bf 4d56 f1be 3124 bf3d
000001e0: ba01 f2bc 2506 b43d e3ff 893e e240 4bbe
000001f0: dd62 913e 707b 52bf 88e3 f1be 87b0 493e
00000200: 835c 20bf 50d5 33bd 0e8e 663e 223b d93d
00000210: b54b f7be f2dc 9dbe 0edb 273e d3bb 96be
00000220: ffa1 75be 106e 8d3e b615 eb3b bf44 ba3d
00000230: 218f bb3d c09a a3bb 1b0f 8dbe 6670 adbd
00000240: 37f4 63be 535d 67be 1a81 eb3c ecf2 b9bd
00000250: 4760 62bc 55e7 433d baf7 2dbd b45d c5bd
00000260: 2fcf 5bbf 5303 5dbe 590d 333d c29d abbe
00000270: aa57 503d 53ab 0abf 42ec 34be e7f7 33bf
00000280: 2076 3bbf 8a42 06be 8eae 5e3e 5167 5b3e
00000290: c257 773e 0a11 42bf 6aa8 08bf 89d1 95be
000002a0: e5c6 0bbf 619b 92be 3fae 75be 06a2 38bd
000002b0: 4a99 84be 961e a3bd 9663 c6bc 2868 56be
000002c0: 6fe2 c2bd c14d 873e ab2f debe d7d8 b83d
000002d0: 64ec 893e f230 923c 7dfe 8a3e 8c1b 073e
000002e0: 7451 f13d fb14 6ebe 6b2e e9be c030 7e3e
000002f0: 9962 64bf d396 18bf b01f 1b3e 92b8 29bf
00000300: ca5b 513e 80d2 9b3a 67e4 abbe 9e1f 1dbe
00000310: 8234 16bd f3a9 883e f2c4 c63d 39d2 3d3e
00000320: 52d0 72be 5a3b 87bf f104 e33d 67f7 df3d
00000330: c807 75be 1cd7 a0bd d03e 583e bc80 333e
00000340: ec55 ebbe e0b9 e2bd d913 933a d956 77bb
00000350: 79e4 edbe 6868 e4be 7c85 c9be a7ff 29be
00000360: 965c bf3d 5431 2bbd 16a2 3bbe e5e7 9fbe
00000370: 8012 3abe 8ac9 88bd 6f25 683d 3882 a63d
00000380: e9dd 6f3e c1d6 b2bd 548f 9fbe 735d 083e
00000390: 6080 ff3d a2ce cf3d 2bdb 4bbe 67c9 c0be
000003a0: b9cd 8bbf 3612 d9bd 9e39 89bd 51ac 783d
000003b0: 6bd2 7abf f0c6 62bf 6f73 963e 6818 873e
000003c0: 7905 d03d cf0e 633e 13c1 103e 2709 78bd
000003d0: e562 ccbe d1d7 4c3e d543 66bf acc0 90bd
000003e0: a5e0 38bd 5577 d9be b4f1 3fbf 7c1f 713e
000003f0: f6c8 5dbe 4e2e eb3e 36d6 e9be 0ead 993e
-0.087016344 0.035925493 -0.083973534 -0.28484038 -0.12226594 0.10454164 -0.16614133 -0.050203614
-0.25235075 0.117287315 0.19777925 0.20443618 -0.44767857 -1.1139351 0.28423956 -0.03319018
-0.23577097 -0.049786083 -0.0862635 0.098272145 -0.9587879 -0.25630355 -0.2636786 0.097771905
-0.80632347 -0.3415172 0.20223935 0.106718846 0.04862653 0.37841856 -0.06942368 0.3410713
0.08333441 -0.020476997 0.3117629 -0.12994848 0.1730342 -0.4112509 0.37928444 -0.6762984
-0.95650935 0.00019408371 0.0127274 0.050609134 -0.3468386 -0.37985066 0.109162375 0.20963117
0.21024945 0.1433372 0.21479468 -0.0498174 0.22277842 0.1936285 -1.0209558 0.0873066
0.0074386797 -0.44905418 -0.5742541 -0.4396164 0.21458845 -0.34643698 -0.24446821 -0.18195155
-0.032403976 -0.16656737 -0.18395452 0.1912784 0.0903604 0.24454173 0.24997088 -0.47342715
-0.1928703 -0.8702214 0.054809876 0.15960808 -0.35540256 0.2730403 0.13247591 -0.2579251
-0.13035402 0.27188185 -0.61170274 0.026680544 -0.123097986 -0.1696957 -0.69868624 0.14808954
-0.043734457 0.05048392 -0.36989453 0.21551718 -0.2784398 -0.45322117 0.07364051 -0.08239249
-0.31714055 -0.0019320697 -0.034334734 -0.5254679 -0.78971004 0.24909286 0.24573852 -0.24836577
0.07994492 0.0066414853 0.16588117 -0.20254965 0.03732342 -0.4433238 0.2273035 0.1590068
-0.41814065 0.16007416 -0.41732788 0.012778403 -0.7432705 -0.57751614 -0.47136155 0.09333075
-0.029541839 0.087902345 0.2695304 -0.1984897 0.2839574 -0.822196 -0.47243905 0.19696246
-0.6264116 -0.043904603 0.22515127 0.10606982 -0.48299947 -0.3083263 0.16392156 -0.29440174
-0.23987578 0.27623034 0.007174219 0.090951435 0.09158159 -0.004992813 -0.27550587 -0.08468704
-0.2226113 -0.22594194 0.028748084 -0.09079537 -0.0138169 0.047828037 -0.04247258 -0.09637013
-0.8586301 -0.215833 0.0437139 -0.33518797 0.050864853 -0.5416767 -0.1766825 -0.70300144
-0.7322712 -0.1311132 0.21746275 0.21426131 0.2415457 -0.7580725 -0.5338198 -0.29261425
-0.54600364 -0.2863417 -0.23992251 -0.045076393 -0.258982 -0.07964818 -0.024217408 -0.2093817
-0.09515845 0.2642651 -0.43395743 0.09025734 0.26938164 0.017845605 0.27147284 0.13194102
0.11783114 -0.23250191 -0.45543227 0.24823284 -0.8921295 -0.5960514 0.15148807 -0.66297257
0.20445171 0.0011888295 -0.33572695 -0.15344092 -0.03667117 0.2669216 0.09705533 0.18537225
-0.2371228 -1.0564988 0.11084927 0.1093586 -0.2392875 -0.07853529 0.21117711 0.17529577
-0.4596399 -0.11070609 0.0011221125 -0.0037740974 -0.46463373 -0.44610906 -0.39359653 -0.1660143
0.09343831 -0.04179509 -0.1832355 -0.3123161 -0.1817112 -0.066790655 0.056676324 0.08130306
0.23424496 -0.08732367 -0.31164038 0.13316898 0.124756575 0.10146834 -0.19907825 -0.37653658
-1.0922157 -0.105991766 -0.06700443 0.06071121 -0.9797732 -0.88584805 0.29384944 0.26385808
0.10157294 0.22173618 0.14136152 -0.060555603 -0.399192 0.20004202 -0.89947253 -0.07067999
-0.045136113 -0.42473856 -0.74978185 0.23547167 -0.21658692 0.45933765 -0.45671242 0.30014843

l3.bias f4 [24]
00000000: f5f7 c73c 7c45 2d3e fd10 11be cf12 0fbe
00000010: b017 e1bb 083a 193e c32f 2cbe dfce e73c
00000020: 153e ba3d 96ad 6d3e 7b19 b3bd 689c e6bd
00000030: 9cfa 51bc 1e3c 913d 5508 113e 08b7 5cbc
00000040: 9fe7 07bd ff8f acbd d94d bebd 8ff5 83bc
00000050: 999f 913d 7448 7d3c d32a 553e 9ca0 acbd
0.024410227 0.16921037 -0.14166637 -0.13972019 -0.006869279 0.14963543 -0.16815095 0.028296886
0.090938725 0.23210749 -0.087450944 -0.11260301 -0.012816098 0.070915446 0.14163335 -0.013471372
-0.033179875 -0.084259026 -0.09292192 -0.016108302 0.07110519 0.015459169 0.20817117 -0.08429071
